stock_price_predcition/experiments/best.pt (torch, 70427 bytes, 11 tensors)

linear_1.weight f4 [32, 1]
0	0x3e8923f8	0.26785254
1	0x40222d27	2.5340059
2	0x40395755	2.8959553
3	0x3fca1247	1.5786828
4	0x3e1b1f00	0.15148544
5	0xc068ec55	-3.6394246
6	0xbbb600df	-0.005554303
7	0x3eb891db	0.3604878
8	0x3f835b48	1.0262232
9	0xc0e8b1eb	-7.2717185
10	0xc0b26196	-5.5744123
11	0xc09140c4	-4.539156
12	0xc069c42f	-3.652599
13	0xc09f7f71	-4.984307
14	0x4002eddd	2.045768
15	0xbd946485	-0.07245735
16	0x3e8bebef	0.2732844
17	0x400eed25	2.2332242
18	0xbfeb5043	-1.8383869
19	0x401c8157	2.4453943
20	0x3c923385	0.017846832
21	0xc060eff1	-3.5146449
22	0xc09c6fdb	-4.888654
23	0x3e21052c	0.15724629
24	0x3fdcc517	1.7247647
25	0xbc58a180	-0.013222098
26	0xbee2acf8	-0.4427259
27	0xbedc11bc	-0.4298228
28	0x3d655780	0.05599165
29	0xc096765d	-4.7019486
30	0x407a89e0	3.9146652
31	0x3e64f152	0.22357681

linear_1.bias f4 [32]
0	0xbf455a5f	-0.7709102
1	0xc049f2d9	-3.1554472
2	0xbfe30d45	-1.7738425
3	0xc03940ab	-2.894572
4	0xbf780626	-0.9688438
5	0xbfcd6964	-1.6047788
6	0xbe50c59a	-0.20387879
7	0xbf3ee619	-0.7456985
8	0xbfed2a6e	-1.8528574
9	0xbee9321b	-0.4554604
10	0xc01d13a5	-2.454324
11	0xc002f84a	-2.0464044
12	0x3f96076d	1.1721016
13	0xc002c55b	-2.0432956
14	0xbf1ba0cd	-0.6079224
15	0xbfaf9f15	-1.3720423
16	0xbf841676	-1.0319355
17	0xc0484a56	-3.129537
18	0xbf4d284d	-0.8013962
19	0xc0433223	-3.049935
20	0xbfeffeff	-1.8749694
21	0xbfc39f89	-1.5283061
22	0x3fa6e0f5	1.3037401
23	0xbf466ee3	-0.7751295
24	0xc047aeec	-3.1200514
25	0xbef06f30	-0.4695983
26	0xbf5266d2	-0.8218814
27	0xbf6c5ddc	-0.9233072
28	0xbf560e56	-0.83615625
29	0xbeaa7358	-0.33291125
30	0xc00fd180	-2.2471619
31	0xbfb0db8b	-1.3816999

lstm.weight_ih_l0 f4 [128, 32]
0	0xbf076df9	-0.5290218
1	0x3dfe5ad7	0.1241967
2	0x3fec466f	1.8458995
3	0x3e865c04	0.26242077
4	0x3e3c4689	0.18386282
5	0xbe0a63ba	-0.13514605
6	0x3eded2e5	0.43520275
7	0xbed019d7	-0.40644714
8	0xbea736f6	-0.3265912
9	0x3f24d2b2	0.64383996
10	0x3ee774fa	0.45206434
11	0x3f4bd86d	0.79627115
12	0x4006a875	2.1040318
13	0x3e3e6fde	0.18597361
14	0x3f431815	0.7620862
15	0xbec90c01	-0.3926697
16	0xbf529414	-0.822572
17	0x3dc712e7	0.09720402
18	0xbfc3c389	-1.5294048
19	0x3f937ae9	1.1521884
20	0x3c33968c	0.010961186
21	0x3dd75b6c	0.10515484
22	0x3fcf4263	1.6192135
23	0x3e810783	0.25201043
24	0x3f4cf5ba	0.8006245
25	0x3e9ae267	0.30250856
26	0x3e92f328	0.28701138
27	0xbcbebaf2	-0.023282502
28	0xbd45b7f4	-0.048271134
29	0x3f586c79	0.84540516
30	0x3fd175a2	1.6364024
31	0x3e9e36fb	0.30901322
32	0x3f68bc55	0.9091237
33	0x3fa10f25	1.2582747
34	0xbf6b0dea	-0.91818106
35	0x3e834d8e	0.25645107
36	0xbd245c58	-0.04012713
37	0x3f94120c	1.1568007
38	0x3f0bbf20	0.5458851
39	0x3ec298f9	0.38007334
40	0x3fde6813	1.7375511
41	0x3f94db87	1.1629494
42	0x3fd62a7c	1.6731715
43	0x3eaef72f	0.3417296
44	0x3ffca599	1.9738036
45	0x3f9af8a9	1.2107135
46	0x40184c6a	2.379664
47	0x3eb4d63b	0.35319695
48	0x3e90961b	0.2823952
49	0x3f2271c5	0.6345485
50	0x3f8680d7	1.0508069
51	0x3f7b4a0b	0.98159856
52	0x3f2d716a	0.6775118
53	0x3f5dd99e	0.8666018
54	0x3fffa3b8	1.9971838
55	0x3f069996	0.52578104
56	0x3f13bfe2	0.57714665
57	0xbe80b760	-0.25139904
58	0x3f02758c	0.5096061
59	0xbc0c39ab	-0.008558671
60	0xbd6dcc3d	-0.058056105
61	0x3f440376	0.7656778
62	0xbf38241d	-0.71930104
63	0x3eb0d3fa	0.34536725
64	0xbda46e4a	-0.080288485
65	0x403fa3f7	2.9943826
66	0x404ab2f1	3.1671717
67	0x3f801cb4	1.000876
68	0xbea8d5d0	-0.32975626
69	0xbeba31a8	-0.3636601
70	0x3e8d1a10	0.27558947
71	0xbe85d2d7	-0.2613742
72	0x3fd91206	1.6958625
73	0xbef9b184	-0.48768246
74	0xbf494dcd	-0.7863434
75	0xbba7b6e8	-0.0051182397
76	0xbf8f5d3b	-1.1200327
77	0xbf35bedc	-0.70994353
78	0x3fd23f4c	1.6425567
79	0x3ebb80c9	0.36621693
80	0x3c4e5b75	0.012595047
81	0x4034531b	2.8175724
82	0xbff8c54a	-1.9435208
83	0x3fed999d	1.8562504
84	0x3e8bb3cd	0.27285615
85	0xbfae31b0	-1.3608913
86	0xc0007b1f	-2.0075147
87	0xbeca3bb5	-0.39498678
88	0x401f8b7c	2.4928885
89	0x3de6952d	0.11258922
90	0x3f192c4d	0.5983322
91	0xbda17612	-0.07883848
92	0xbd8f40df	-0.06994795
93	0x3f881689	1.0631877
94	0x400c76b8	2.194746
95	0x3f6b3394	0.91875577
96	0xbed78eba	-0.4210108
97	0xbf97ace4	-1.1849637
98	0xc03bf3ec	-2.9367628
99	0xbfcb004e	-1.5859468
100	0x3ecdac62	0.4017058
101	0x3fa8ddea	1.3192723
102	0xbefc99ab	-0.4933599
103	0xbf094ee5	-0.5363601
104	0xc0076d5f	-2.1160505
105	0xbf45544d	-0.7708176
106	0x3fd512a0	1.6646309
107	0x3fc47f3b	1.5351328
108	0x3e6bb0ca	0.23016658
109	0x3fd3f21f	1.6558264
110	0xbf171d21	-0.5902882
111	0x3e27c678	0.16384304
112	0xbe9e022f	-0.3086104
113	0xbfb659ae	-1.4246118
114	0x40534a9f	3.3014295
115	0xbf8b4079	-1.087905
116	0xbf6fe592	-0.9370967
117	0x3f77fe2c	0.9687221
118	0x3dd363ba	0.10321756
119	0xbf6a6cdf	-0.91572374
120	0x3edcb7f5	0.43109098
121	0xbd9a05fb	-0.07520672
122	0xbeafbfb7	-0.34325954
123	0xbdf991d1	-0.121860154
124	0x3e99ab10	0.30013323
125	0xbf5aa083	-0.8540117
126	0xbfb5669b	-1.4171938
127	0xbcb73fb5	-0.022369245
128	0x3e07bc5e	0.1325545
129	0x3c8a63da	0.016893316
130	0xbf711811	-0.9417735
131	0xc009cac2	-2.1530004
132	0xbe5d90d3	-0.21637277
133	0x3f61e2af	0.88236517
134	0x3db187cf	0.086684816
135	0x3ee92ece	0.45543522
136	0xbfeaaa48	-1.8333216
137	0xc04e4ecf	-3.22356
138	0xbe094662	-0.13405755
139	0xbf617101	-0.88063055
140	0x3f846650	1.0343723
141	0xbf9e8dec	-1.2387061
142	0x3f4fe02f	0.8120145
143	0x3e5fad59	0.2184347
144	0xbb49e4e4	-0.0030806595
145	0xbf1e1717	-0.6175398
146	0x3f15e6bf	0.58555216
147	0x3f1f2548	0.6216626
148	0x3dbaee28	0.09127456
149	0x3f0cbbf1	0.54974276
150	0x3f1f2dfb	0.62179536
151	0xbf528ef8	-0.82249403
152	0xbf6171f8	-0.8806453
153	0x3c9926b1	0.018695207
154	0xbeaab85e	-0.33343786
155	0x3c1a810a	0.009430179
156	0xbe7cb2f5	-0.24677642
157	0xc007bf1f	-2.12104
158	0xc0122557	-2.283529
159	0x3f6c526a	0.92313254
160	0xbf26d3e9	-0.651671
161	0xbf56ac38	-0.83856535
162	0xbec5dbc0	-0.38644218
163	0x3d7d47f3	0.061836194
164	0x3d84eb76	0.06490223
165	0xc01821fc	-2.3770742
166	0xbf8229cc	-1.0169005
167	0xbf3d9ea2	-0.7407018
168	0x3f31fae5	0.6952346
169	0xc0366758	-2.8500576
170	0xc0115824	-2.2710047
171	0xc018f18f	-2.3897436
172	0xc061d117	-3.5283868
173	0xc01e557b	-2.4739673
174	0xbf9c32a1	-1.2202951
175	0xbe7c558b	-0.24642007
176	0xbfa1d41d	-1.2642857
177	0xc00ee68a	-2.232821
178	0xbff17bf0	-1.8865948
179	0xbfdc7a50	-1.7224827
180	0x3e912918	0.28351665
181	0xbfb7c57c	-1.4357142
182	0xc04a4a69	-3.1607916
183	0xbf14422d	-0.57913476
184	0xbfa0a1c0	-1.2549362
185	0x3e1c3824	0.15255791
186	0xbf51590b	-0.81776494
187	0xbe190255	-0.14942296
188	0xbf2d68b2	-0.6773788
189	0xbf0158e5	-0.5052627
190	0x3fe4af1f	1.7865943
191	0xbf040e32	-0.5158416
192	0xbe852de1	-0.26011565
193	0x4014ac2e	2.323009
194	0x403c8ac7	2.9459703
195	0x3fd5a076	1.6689594
196	0x3eaf3daf	0.34226748
197	0x3f2241a6	0.6338142
198	0x3d78ef45	0.06077506
199	0xbf06b2c0	-0.526165
200	0x3febb2e6	1.841397
201	0x4004f6a1	2.077553
202	0x3f2aaa4a	0.6666609
203	0x3f3abee7	0.72947544
204	0x3f3e3599	0.74300534
205	0x3f8e9447	1.1139001
206	0x3fd53b4b	1.665872
207	0xbed14cba	-0.4087885
208	0xbe433304	-0.1906243
209	0x3f9f0932	1.2424681
210	0x3f8dacd1	1.1068364
211	0x3fc21d58	1.5165205
212	0x3f2ffada	0.68742144
213	0x3fc0d110	1.5063801
214	0x3e59a9fe	0.21256253
215	0x3d97bfcd	0.0740963
216	0x3f9f7c40	1.2459793
217	0x3eae6627	0.3406231
218	0xbdb0e451	-0.08637298
219	0xbd032b97	-0.032023992
220	0xbd9ab6fa	-0.07554431
221	0x3f83596c	1.0261664
222	0x405f90ce	3.4932132
223	0x3d426059	0.047455166
224	0xbe1d6539	-0.15370645
225	0x3ff29e57	1.8954571
226	0x3fa68742	1.3010027
227	0xbf986203	-1.1904911
228	0xbe2e0ff1	-0.16998269
229	0xbf855faa	-1.0419819
230	0xbf21e816	-0.6324476
231	0xbe87b942	-0.26508528
232	0xbfc7fdf9	-1.5624381
233	0xc0375823	-2.8647544
234	0xbf99433e	-1.1973646
235	0xbfed616e	-1.8545358
236	0x3e8c5a9c	0.2741288
237	0xbf9a6ede	-1.2065084
238	0xc000d244	-2.0128336
239	0xbe4cf5b9	-0.20015611
240	0xbf38b40a	-0.7214972
241	0x3ed638ef	0.41840312
242	0xc02159ff	-2.521118
243	0x3e7cdef8	0.24694431
244	0xbe344f74	-0.17608434
245	0xbf9d88e5	-1.2307402
246	0x3e82ddaf	0.25559756
247	0xbf7fa4f7	-0.9986109
248	0xbf6a8939	-0.91615635
249	0x3e9e6948	0.30939698
250	0xbf5eb14f	-0.869893
251	0xbea93dd1	-0.33054975
252	0xbe538509	-0.20656218
253	0xc04052c5	-3.0050519
254	0x3fd068ae	1.6281946
255	0xbc224150	-0.009903267

lstm.weight_hh_l0 f4 [128, 32]
0	0x3ee11d8b	0.43967852
1	0xbfc3d724	-1.5300031
2	0xbe445a3d	-0.19175048
3	0x3e94b773	0.2904621
4	0x3e799c89	0.2437612
5	0x3fcd7503	1.6051334
6	0xbf34d5ea	-0.70638907
7	0x3e245caf	0.16050981
8	0xbdfaf87a	-0.122544244
9	0xbeddd43a	-0.4332598
10	0xbf022345	-0.5083507
11	0x3e8b76f2	0.27239186
12	0xbef32419	-0.47488478
13	0x3fedbd26	1.8573349
14	0x3fee8f22	1.8637431
15	0xbeec41b5	-0.4614388
16	0xbe0ce952	-0.1376088
17	0xc03283b1	-2.7892878
18	0xbee6ba24	-0.4506389
19	0xbda397af	-0.07987916
20	0x3f37d871	0.7181464
21	0x3d1ef883	0.038811218
22	0xbf7f9200	-0.99832153
23	0x3e30b302	0.17255786
24	0xbf031b5f	-0.5121364
25	0x3ed1cf85	0.40978637
26	0x3f1aa243	0.6040384
27	0x3f069196	0.52565897
28	0x4011c83b	2.277846
29	0x3f45c07f	0.7724685
30	0xbf88bd54	-1.0682778
31	0xc019e59f	-2.40464
32	0xc00e9b14	-2.2282152
33	0xbef8e1fe	-0.48609918
34	0xbd4798f7	-0.048729863
35	0x3f87241b	1.0557894
36	0xbec02889	-0.37530926
37	0x3f5537d3	0.83288306
38	0xbf2705ce	-0.6524323
39	0xbf5b3ae6	-0.85636747
40	0x3fd913ab	1.6959127
41	0xbeda5574	-0.4264332
42	0x4013bddc	2.308463
43	0x3d3ee1ae	0.046601944
44	0xbf74626d	-0.95462686
45	0x3e4df51b	0.20113032
46	0xbfd99c82	-1.7000887
47	0x3f3e9aec	0.7445514
48	0x3f27fa8e	0.6561669
49	0xbe9afb0b	-0.30269656
50	0x3ffb526a	1.9634526
51	0xbf19c7e0	-0.6007061
52	0xbf7eec59	-0.9957939
53	0x3f3ab490	0.72931767
54	0x401432ef	2.3156087
55	0x3f99cf89	1.201646
56	0x3ed28e5a	0.4112423
57	0xbfcbcb9f	-1.5921515
58	0x3fa2d82b	1.2722219
59	0x3f37198d	0.7152336
60	0xbfc77037	-1.558112
61	0xbfa18155	-1.2617594
62	0xbee43510	-0.44571733
63	0xbf4a344c	-0.7898605
64	0xc0132f47	-2.2997606
65	0x3fb63a27	1.4236497
66	0x405be21f	3.4356763
67	0xc09cc2d4	-4.8987827
68	0x3fc34020	1.5253944
69	0x3fe763d9	1.8077346
70	0x3f99647c	1.198379
71	0xbf9217a6	-1.1413467
72	0x40b2beb2	5.585778
73	0x408926e7	4.285999
74	0x4004b221	2.0733721
75	0xbfe56167	-1.792035
76	0x40142da0	2.3152847
77	0x3d83ae07	0.064296775
78	0x3f9ee981	1.241501
79	0xbf2e328c	-0.6804588
80	0x3f8f20cd	1.1181885
81	0x3faf3fba	1.3691323
82	0xbf620e93	-0.8830349
83	0xbfc13c45	-1.5096518
84	0x3f90cd02	1.1312563
85	0xbfa1b57c	-1.263351
86	0x408a338d	4.318793
87	0x40873214	4.224863
88	0x3c5b227c	0.013374921
89	0xc0554ca9	-3.332804
90	0x3fb07710	1.3786335
91	0x3f01aead	0.5065716
92	0x4060e40e	3.5139194
93	0xc0502254	-3.2520952
94	0x40514d59	3.270346
95	0x400a2727	2.1586397
96	0x3d98c38a	0.07459171
97	0x3e49d139	0.19708718
98	0xbfa4aeab	-1.2865804
99	0x3f150f2f	0.58226293
100	0x3ff45d5a	1.9090989
101	0x3fa244a7	1.2677201
102	0xbf8418ad	-1.032003
103	0xbf16ae17	-0.5885939
104	0xbf0f35e2	-0.55941594
105	0x40561685	3.3451245
106	0xbebc8f05	-0.36827865
107	0xbfe0365d	-1.751659
108	0xbf919749	-1.1374294
109	0xbf946a67	-1.1594971
110	0x3eb883d7	0.36038086
111	0xc086eba1	-4.2162633
112	0x3f918861	1.1369745
113	0xbf647b0c	-0.89250255
114	0xc0153aec	-2.3317213
115	0xbfb18351	-1.38682
116	0xbfdd9ae0	-1.7312889
117	0xbf1ebd88	-0.6200795
118	0xbf784c5c	-0.96991515
119	0x3ee86515	0.4538962
120	0x3f9e120d	1.2349259
121	0xbd8c6e9e	-0.06857036
122	0x3fd7f365	1.6871153
123	0xbfc291d5	-1.5200754
124	0x3f9833c2	1.1890795
125	0x3f5c4030	0.8603544
126	0x3fe61a12	1.7976706
127	0xbfa7c48d	-1.3106858
128	0xbfbad829	-1.4597217
129	0x3f9f0a5c	1.2425036
130	0x3f583fc7	0.84472317
131	0x3eaa83f5	0.333038
132	0xbfa92407	-1.321412
133	0x40459144	3.0869913
134	0xc04f91b4	-3.243268
135	0xc0244e9d	-2.5672982
136	0x4022d00b	2.543948
137	0x40be6a0b	5.9504447
138	0x3f624a13	0.8839428
139	0xc02b1d88	-2.6736774
140	0x400465ad	2.0687058
141	0xbf1869c3	-0.5953638
142	0x406012c7	3.501146
143	0xc0386f62	-2.8817983
144	0x3e87e7c4	0.2654401
145	0xbfa4628c	-1.2842574
146	0xc02ec0be	-2.730514
147	0xc0089a92	-2.1344342
148	0xbf2b2d4b	-0.66865987
149	0xbfe980ef	-1.8242472
150	0x3e64cbdd	0.22343393
151	0x3fafaaf8	1.372405
152	0x4047f450	3.1242867
153	0xc02d0e7f	-2.7040098
154	0x3f8e4ab1	1.1116544
155	0xc09cedd9	-4.904034
156	0x402d1036	2.7041144
157	0xbeba183e	-0.3634662
158	0x3fb86551	1.4405919
159	0xc0025fe7	-2.0371034
160	0xbfc63167	-1.5483826
161	0x402d5851	2.7085154
162	0x3f1f67c7	0.62267727
163	0xbe77ab23	-0.24186377
164	0x3f06fdb8	0.52730894
165	0x3fa49707	1.285859
166	0xbfbcd6da	-1.4753067
167	0xbdd527f5	-0.10408012
168	0x3e92bfad	0.28661862
169	0x3fbcb65e	1.4743154
170	0x3fdfb3e1	1.747677
171	0xbf34d9cc	-0.7064483
172	0xbf6cb10e	-0.92457664
173	0xc0078d46	-2.1179976
174	0x3ead294c	0.3382057
175	0xbf63c9d8	-0.88979864
176	0xbf435765	-0.7630523
177	0x3f9fa14b	1.2471098
178	0xbf91a1c7	-1.1377496
179	0xbfe65461	-1.79945
180	0x3d9fd791	0.07804788
181	0xc03eada3	-2.979348
182	0xbff1a8e6	-1.8879669
183	0xbf8d5ded	-1.1044289
184	0x3f130dee	0.5744313
185	0xbc3a5682	-0.011373164
186	0x3ef9a9b7	0.48762295
187	0xbd917704	-0.071027786
188	0x3fe7d242	1.811104
189	0xbd377bc0	-0.04479575
190	0x4015bf10	2.3397865
191	0xbf3ed183	-0.7453844
192	0x3e745fdc	0.23864692
193	0x3fd1bbf0	1.6385479
194	0x3fbc7f71	1.4726392
195	0xbf392527	-0.72322315
196	0xbf8be6f9	-1.0929862
197	0xbfb6dc7c	-1.4286036
198	0x3f99b7a4	1.2009168
199	0xbf02d868	-0.5111146
200	0x3e84a06b	0.2590364
201	0xbf100a98	-0.56266165
202	0xbeb64fb1	-0.35607675
203	0x3eb71f56	0.35766095
204	0xbea412cc	-0.3204559
205	0xbefb0672	-0.49028355
206	0xc0905e04	-4.5114765
207	0xbdd30abf	-0.10304784
208	0x3ec917b4	0.39275897
209	0x3fbf0d66	1.4925964
210	0x3f8e6692	1.1125052
211	0xbdaf16de	-0.085492834
212	0x3fba34ec	1.45474
213	0xbeb9228e	-0.36159176
214	0xbeaaba27	-0.33345148
215	0xbe0c8990	-0.13724351
216	0xbe139b63	-0.14414744
217	0xbd740104	-0.05957128
218	0xbec39a89	-0.38203838
219	0x3ff270cb	1.8940672
220	0xbfb861af	-1.4404811
221	0xbe6e7468	-0.23286593
222	0x3f936d44	1.151772
223	0x40486a20	3.1314774
224	0x3f8a2bc0	1.0794601
225	0x3ebab790	0.36468172
226	0xc0027463	-2.0383537
227	0xbec9c626	-0.39408988
228	0x3fae54ef	1.361967
229	0xbeaf5ab5	-0.3424889
230	0xc014ae9f	-2.323158
231	0xbf099e71	-0.5375739
232	0xbfcea17e	-1.6143034
233	0x403830a8	2.8779697
234	0xbf27a42a	-0.6548487
235	0xbf9df977	-1.2341756
236	0x40829068	4.0801277
237	0xbf5dc0be	-0.86622226
238	0x405b634f	3.4279363
239	0xbf9b0b97	-1.2112912
240	0x3e4bef2e	0.19915459
241	0xbee1098f	-0.43952605
242	0xbf9745fe	-1.1818235
243	0x3d4478d4	0.047966793
244	0x3f50f5b2	0.816249
245	0xbf8e335e	-1.1109426
246	0xbfde3d64	-1.7362485
247	0xbf2b76f1	-0.66978365
248	0x3f3a97de	0.7288798
249	0x3fcc17e8	1.5944796
250	0xbf0094cb	-0.5022704
251	0xc05323ce	-3.2990603
252	0x3fb0fd70	1.3827343
253	0x3e930304	0.28713238
254	0x3f02981f	0.5101337
255	0xbf5783a6	-0.84185255

lstm.bias_ih_l0 f4 [128]
0	0x3ee3edc8	0.4451735
1	0x400294fe	2.0403438
2	0xbf8554ac	-1.0416465
3	0x3f62b6c5	0.88560134
4	0xbf7c30ad	-0.98511773
5	0xbfcaeb44	-1.5853047
6	0x3f207ede	0.62693584
7	0xbeb67295	-0.35634294
8	0x406f19e1	3.7359545
9	0xbf934286	-1.1504676
10	0xbf5a8e2e	-0.853732
11	0xc009d47d	-2.1535943
12	0xbf9ef688	-1.2418985
13	0xbe982c31	-0.29721215
14	0x3f380e04	0.71896386
15	0x3eb9b69b	0.3627213
16	0xbf80b56e	-1.0055368
17	0xbf8acda9	-1.0844012
18	0x40093e74	2.1444368
19	0x3fcb8c82	1.5902255
20	0xbf40c25e	-0.7529658
21	0x40481377	3.126188
22	0xbe993495	-0.2992293
23	0xbf9e65b1	-1.2374784
24	0xbe68affb	-0.22723381
25	0x3fb1fb19	1.3904754
26	0xbef4c439	-0.47805956
27	0xbf858c7f	-1.0433501
28	0x400b48e6	2.1763244
29	0x3ff06573	1.878096
30	0x4026ff49	2.6093314
31	0x3f6c82ee	0.9238728
32	0x3f8a2d90	1.0795155
33	0x3f4796c4	0.77964425
34	0x3fb95022	1.447758
35	0x3b940f47	0.0045184228
36	0x3f8dc354	1.1075234
37	0x3f0394ed	0.5139912
38	0xc01eff3c	-2.4843283
39	0x3f7d1c0e	0.98870933
40	0xbcccb970	-0.024990767
41	0x402e5f32	2.7245603
42	0x3f4af360	0.7927761
43	0x3f966950	1.1750889
44	0xbf7aa244	-0.9790385
45	0xbf0e7860	-0.5565243
46	0xc025a2d7	-2.588064
47	0x3fbea9c1	1.4895555
48	0xbfce8703	-1.6134952
49	0xbf9dc3ef	-1.2325419
50	0xc048a3eb	-3.1350048
51	0x40296643	2.6468666
52	0x3f03d35d	0.5149439
53	0x3fcf6e90	1.6205616
54	0x3f82173c	1.016334
55	0xbf53a026	-0.8266624
56	0x3dd127c8	0.10212666
57	0x3dc13000	0.094329834
58	0xbe03b696	-0.1286262
59	0xc01b3a29	-2.4254248
60	0x3fd87ff4	1.6914048
61	0x3e2a3069	0.1662003
62	0x40193b13	2.3942306
63	0xc044894e	-3.0708804
64	0x3fa37533	1.2770141
65	0xbf9e17f9	-1.2351066
66	0xbe1d6de6	-0.15373954
67	0x3f3244ec	0.69636416
68	0x3fe01bb9	1.750846
69	0x3db8a70e	0.09016238
70	0x3f5a367b	0.8523938
71	0xbe5c8516	-0.21535143
72	0xc02e5d6c	-2.724452
73	0xbfef7e17	-1.8710355
74	0x3ea053a7	0.31313822
75	0xbd05e880	-0.032692432
76	0xbeb8f60f	-0.36125228
77	0x401e41b6	2.4727607
78	0xbfd4e483	-1.6632236
79	0xbfcdfb2a	-1.6092274
80	0xbd7021f5	-0.058626134
81	0xbece65ec	-0.40312135
82	0x3f0bccef	0.5460958
83	0x3fa2c056	1.2714946
84	0x3f37c792	0.71788895
85	0x3fe1337f	1.759384
86	0x3f7b54d0	0.9817629
87	0xbfe2b9e6	-1.7712982
88	0xbff5a744	-1.919167
89	0x3fe0cc1c	1.7562289
90	0xbfa08804	-1.2541509
91	0x3fa8fc8c	1.3202071
92	0xbf1d72dd	-0.6150339
93	0x3e0e6333	0.13905029
94	0xbfcd28dd	-1.6028095
95	0x3e31faa1	0.17380764
96	0xc0023d80	-2.0350037
97	0xbf2189fa	-0.6310116
98	0xbf2a0da9	-0.66427094
99	0xbf450985	-0.7696765
100	0x3fe039df	1.7517661
101	0xbfc2f18e	-1.5229967
102	0xc0308681	-2.7582095
103	0xbe024201	-0.12720491
104	0xbf96a9b7	-1.1770543
105	0x3fc277ab	1.519277
106	0xbf086f92	-0.5329524
107	0x3f5af220	0.85525703
108	0xc01ae952	-2.4204907
109	0xbe6c8f17	-0.2310146
110	0xc0a81298	-5.2522697
111	0xc060bef4	-3.5116549
112	0xc01a72fc	-2.413268
113	0xbf6411aa	-0.89089453
114	0x3f7ea558	0.99471045
115	0xbf675a45	-0.90372115
116	0xbfc61834	-1.5476136
117	0xbf2d1152	-0.67604554
118	0xbef52aed	-0.47884312
119	0xbf91003a	-1.1328194
120	0xbef61df4	-0.48069727
121	0x3f06c94e	0.52650917
122	0xbeb241ce	-0.3481583
123	0xbfdec522	-1.740391
124	0xbfa947b3	-1.3225006
125	0xbf38a26c	-0.72122836
126	0xbf93d633	-1.1549743
127	0xbf2183c3	-0.6309168

lstm.bias_hh_l0 f4 [128]
0	0x3ee3edc8	0.4451735
1	0x400294fe	2.0403438
2	0xbf8554ac	-1.0416465
3	0x3f62b6c5	0.88560134
4	0xbf7c30ad	-0.98511773
5	0xbfcaeb44	-1.5853047
6	0x3f207ede	0.62693584
7	0xbeb67295	-0.35634294
8	0x406f19e1	3.7359545
9	0xbf934286	-1.1504676
10	0xbf5a8e2e	-0.853732
11	0xc009d47d	-2.1535943
12	0xbf9ef688	-1.2418985
13	0xbe982c31	-0.29721215
14	0x3f380e04	0.71896386
15	0x3eb9b69b	0.3627213
16	0xbf80b56e	-1.0055368
17	0xbf8acda9	-1.0844012
18	0x40093e74	2.1444368
19	0x3fcb8c82	1.5902255
20	0xbf40c25e	-0.7529658
21	0x40481377	3.126188
22	0xbe993495	-0.2992293
23	0xbf9e65b1	-1.2374784
24	0xbe68affb	-0.22723381
25	0x3fb1fb19	1.3904754
26	0xbef4c439	-0.47805956
27	0xbf858c7f	-1.0433501
28	0x400b48e6	2.1763244
29	0x3ff06573	1.878096
30	0x4026ff49	2.6093314
31	0x3f6c82ee	0.9238728
32	0x3f8a2d90	1.0795155
33	0x3f4796c4	0.77964425
34	0x3fb95022	1.447758
35	0x3b940f47	0.0045184228
36	0x3f8dc354	1.1075234
37	0x3f0394ed	0.5139912
38	0xc01eff3c	-2.4843283
39	0x3f7d1c0e	0.98870933
40	0xbcccb970	-0.024990767
41	0x402e5f32	2.7245603
42	0x3f4af360	0.7927761
43	0x3f966950	1.1750889
44	0xbf7aa244	-0.9790385
45	0xbf0e7860	-0.5565243
46	0xc025a2d7	-2.588064
47	0x3fbea9c1	1.4895555
48	0xbfce8703	-1.6134952
49	0xbf9dc3ef	-1.2325419
50	0xc048a3eb	-3.1350048
51	0x40296643	2.6468666
52	0x3f03d35d	0.5149439
53	0x3fcf6e90	1.6205616
54	0x3f82173c	1.016334
55	0xbf53a026	-0.8266624
56	0x3dd127c8	0.10212666
57	0x3dc13000	0.094329834
58	0xbe03b696	-0.1286262
59	0xc01b3a29	-2.4254248
60	0x3fd87ff4	1.6914048
61	0x3e2a3069	0.1662003
62	0x40193b13	2.3942306
63	0xc044894e	-3.0708804
64	0x3fa37533	1.2770141
65	0xbf9e17f9	-1.2351066
66	0xbe1d6de6	-0.15373954
67	0x3f3244ec	0.69636416
68	0x3fe01bb9	1.750846
69	0x3db8a70e	0.09016238
70	0x3f5a367b	0.8523938
71	0xbe5c8516	-0.21535143
72	0xc02e5d6c	-2.724452
73	0xbfef7e17	-1.8710355
74	0x3ea053a7	0.31313822
75	0xbd05e880	-0.032692432
76	0xbeb8f60f	-0.36125228
77	0x401e41b6	2.4727607
78	0xbfd4e483	-1.6632236
79	0xbfcdfb2a	-1.6092274
80	0xbd7021f5	-0.058626134
81	0xbece65ec	-0.40312135
82	0x3f0bccef	0.5460958
83	0x3fa2c056	1.2714946
84	0x3f37c792	0.71788895
85	0x3fe1337f	1.759384
86	0x3f7b54d0	0.9817629
87	0xbfe2b9e6	-1.7712982
88	0xbff5a744	-1.919167
89	0x3fe0cc1c	1.7562289
90	0xbfa08804	-1.2541509
91	0x3fa8fc8c	1.3202071
92	0xbf1d72dd	-0.6150339
93	0x3e0e6333	0.13905029
94	0xbfcd28dd	-1.6028095
95	0x3e31faa1	0.17380764
96	0xc0023d80	-2.0350037
97	0xbf2189fa	-0.6310116
98	0xbf2a0da9	-0.66427094
99	0xbf450985	-0.7696765
100	0x3fe039df	1.7517661
101	0xbfc2f18e	-1.5229967
102	0xc0308681	-2.7582095
103	0xbe024201	-0.12720491
104	0xbf96a9b7	-1.1770543
105	0x3fc277ab	1.519277
106	0xbf086f92	-0.5329524
107	0x3f5af220	0.85525703
108	0xc01ae952	-2.4204907
109	0xbe6c8f17	-0.2310146
110	0xc0a81298	-5.2522697
111	0xc060bef4	-3.5116549
112	0xc01a72fc	-2.413268
113	0xbf6411aa	-0.89089453
114	0x3f7ea558	0.99471045
115	0xbf675a45	-0.90372115
116	0xbfc61834	-1.5476136
117	0xbf2d1152	-0.67604554
118	0xbef52aed	-0.47884312
119	0xbf91003a	-1.1328194
120	0xbef61df4	-0.48069727
121	0x3f06c94e	0.52650917
122	0xbeb241ce	-0.3481583
123	0xbfdec522	-1.740391
124	0xbfa947b3	-1.3225006
125	0xbf38a26c	-0.72122836
126	0xbf93d633	-1.1549743
127	0xbf2183c3	-0.6309168

lstm.weight_ih_l1 f4 [128, 32]
0	0xbf91b7cf	-1.1384219
1	0x3f426797	0.75939316
2	0x3e8da1f7	0.27662632
3	0x3f9427c1	1.1574632
4	0x3c38c798	0.011278056
5	0x3f8d4e6c	1.1039557
6	0x40068bfc	2.102294
7	0x3f809aac	1.0047202
8	0x3fef50dc	1.8696551
9	0x3ee8e4af	0.45486972
10	0x3f538dc0	0.8263817
11	0x3ef719b0	0.48261786
12	0xc045f1f6	-3.0928931
13	0xc00d2a63	-2.205712
14	0xbf38b8fa	-0.7215725
15	0xbd80423f	-0.062626354
16	0xbd8a9a3f	-0.06767701
17	0x3f148f16	0.5803083
18	0xc0226b03	-2.5377815
19	0xbfb601c3	-1.4219288
20	0xbea4fa52	-0.3222223
21	0xbf1a2413	-0.60211295
22	0xbeb999de	-0.36250204
23	0xbe87740b	-0.2645572
24	0x3e83186d	0.25604573
25	0xbf91f242	-1.1402056
26	0x3f613ee9	0.8798662
27	0x3fde42b9	1.7364112
28	0x3dddc4b8	0.10828537
29	0x3f9dc401	1.2325441
30	0x3f45019a	0.7695557
31	0xbf3bcc53	-0.7335865
32	0x3f464bb4	0.77459264
33	0x3f39f3c7	0.726376
34	0xbf67d312	-0.9055644
35	0xbf4ed970	-0.80800533
36	0x3f2297e1	0.63513
37	0xbe977e3c	-0.29588497
38	0xbfbaa675	-1.4582049
39	0xbe432993	-0.19058828
40	0xbfed241a	-1.8526642
41	0x3f4a6586	0.7906116
42	0xbf5c2878	-0.8599925
43	0xbeac9c6a	-0.33713084
44	0x4020f291	2.514805
45	0xbfd2e570	-1.6476269
46	0x3fc1959a	1.512378
47	0xbefe7cdf	-0.49704644
48	0x3f8f3e1f	1.1190833
49	0x3f22808b	0.6347739
50	0xbfc11001	-1.5083009
51	0xbf391040	-0.7229042
52	0xbf311627	-0.69174427
53	0x3e4f180d	0.20224018
54	0xbee31ffa	-0.44360334
55	0xbdb29afc	-0.08720967
56	0xbd15834c	-0.036502168
57	0x4014b11d	2.3233101
58	0xbcf79696	-0.030223172
59	0xc01deef3	-2.4677093
60	0xbe424959	-0.18973292
61	0x3e84d7eb	0.25945982
62	0x3eb1c721	0.34722236
63	0xc0178b42	-2.3678746
64	0x3f96eee6	1.1791656
65	0xbed393ef	-0.41323802
66	0xbf13309b	-0.5749604
67	0x3f38fab0	0.7225752
68	0xbf0e4cae	-0.55585754
69	0xbf009cd1	-0.5023928
70	0x3f989e02	1.192322
71	0xbf88941b	-1.0670198
72	0xbed819fb	-0.42207322
73	0xbfd144e0	-1.6349144
74	0x3f106dc4	0.5641749
75	0x3f2da9c4	0.67837167
76	0xbfc50e06	-1.5394905
77	0x3fb88c64	1.4417844
78	0xbfc0ab43	-1.5052265
79	0x3f321824	0.69568086
80	0xbfc54dd4	-1.5414376
81	0xbf4c18a4	-0.797251
82	0x3cb47ab5	0.022031168
83	0x3f5f2fa2	0.87182057
84	0x3fb15fd3	1.3857368
85	0x3f27f2ce	0.65604866
86	0x3f8d41d0	1.1035709
87	0xbed845be	-0.4224071
88	0x3f3b11b4	0.7307389
89	0x3e1e96fe	0.15487286
90	0xbf6929d6	-0.9107946
91	0x3f908d90	1.1293201
92	0x3c449732	0.011998938
93	0x3f5fae4a	0.8737532
94	0xbec457b0	-0.3834815
95	0x3f1071f7	0.56423897
96	0x3f320e7a	0.6955334
97	0x3f0f228b	0.55912083
98	0xbf1c832d	-0.6113766
99	0xbff0fd80	-1.8827362
100	0xbf7aef50	-0.9802141
101	0xbf07301d	-0.5280779
102	0xc049ecda	-3.1550813
103	0xbeba96be	-0.36443132
104	0xbf82b6cf	-1.0212039
105	0x3fc1ede2	1.5150721
106	0xbf1e06b3	-0.6172897
107	0xbf544b13	-0.82927054
108	0x3fef90c5	1.8716055
109	0xbf96aa01	-1.1770631
110	0x3f5a1fee	0.8520497
111	0xbf971a0c	-1.1804824
112	0x3c86faeb	0.016477069
113	0xbf1b5eb1	-0.6069136
114	0xbfa5fec1	-1.296837
115	0xbe24e090	-0.16101289
116	0xbfed69d0	-1.8547916
117	0xbc9a1351	-0.018808039
118	0xbf9a1aac	-1.203939
119	0xbeba3ce8	-0.36374593
120	0x3f33a299	0.7016998
121	0x3fb543b3	1.4161285
122	0x3eb0efda	0.34557992
123	0xc04709b5	-3.1099675
124	0xbe9381df	-0.2881002
125	0xbf82c756	-1.0217083
126	0x3f441aca	0.76603377
127	0xbfb871bc	-1.4409709
128	0xbf697ce6	-0.91206205
129	0x3fad33ec	1.353147
130	0x3f3c58af	0.7357282
131	0xbf91616b	-1.1357855
132	0x3f958911	1.1682454
133	0x3f840165	1.0312926
134	0x4006aee3	2.1044242
135	0x3fa4a920	1.2864113
136	0x3fc01e8a	1.500932
137	0x3ee76602	0.45195013
138	0x3e8e4b52	0.2779184
139	0xbfa51de3	-1.2899746
140	0xbfc2c5bb	-1.5216593
141	0xbfc2c798	-1.5217161
142	0xbe26446b	-0.16237037
143	0x3fb91777	1.4460286
144	0x3f72bcd8	0.948194
145	0xbf348792	-0.70519364
146	0x3e53e082	0.20691112
147	0xbfd25012	-1.6430686
148	0x3e58e4c7	0.21181022
149	0xbea2a531	-0.31766656
150	0xbf034d17	-0.51289505
151	0x3fa70ecb	1.305139
152	0xbe55d331	-0.20881344
153	0xbe8708f6	-0.26374024
154	0x3f7ef995	0.9959958
155	0x3fabd69f	1.3424872
156	0x3dd46208	0.103702605
157	0xbfb10798	-1.3830442
158	0x3d74e0ee	0.059784822
159	0xc03a24fe	-2.9085078
160	0xbf09351b	-0.5359666
161	0x3ebdb171	0.3704944
162	0x3fdbe099	1.7177917
163	0x3ee6307a	0.4495886
164	0x3f88493c	1.0647349
165	0xbf817f90	-1.0117054
166	0x3f64e364	0.8940947
167	0x40050068	2.0781498
168	0x3f2aea76	0.6676401
169	0xbf1c26d3	-0.6099674
170	0x3de09012	0.10964979
171	0x3f5a42d2	0.8525821
172	0xc005f15c	-2.0928564
173	0xbe4093f2	-0.18806437
174	0xbfdcb4ef	-1.7242717
175	0x3f0d1dff	0.55123895
176	0xbf9d6f2c	-1.2299552
177	0xbf536e81	-0.8259049
178	0xbf938ace	-1.1526735
179	0xbefe8fea	-0.49719173
180	0x3feaa4a1	1.8331491
181	0xbe343616	-0.17598757
182	0xbe86b525	-0.26310077
183	0x3da255e6	0.0792654
184	0x3e999ced	0.30002537
185	0xbf3d40a4	-0.7392676
186	0xbdbcfd1b	-0.092279635
187	0x3f75c236	0.9599947
188	0xbecbc789	-0.3980067
189	0x3ef08e69	0.4698365
190	0x3e967ff1	0.29394487
191	0x3ea563e0	0.3230276
192	0x3d9e6e5f	0.07735895
193	0x40aa582a	5.323262
194	0x4034b9da	2.8238435
195	0xbf16b305	-0.5886691
196	0xc02d061f	-2.7034986
197	0x3f0a97b7	0.5413775
198	0xc09b7d2a	-4.859029
199	0x3e8fcae7	0.2808449
200	0x40a4c66b	5.149221
201	0x3fb21973	1.3914016
202	0x3f48d63c	0.78451896
203	0xc013058a	-2.297213
204	0xc01ef216	-2.4835258
205	0xc096fa92	-4.718087
206	0xbe45b7f5	-0.19308455
207	0xbeeeaadd	-0.46614733
208	0xbf8eacb9	-1.1146461
209	0x3eea6f17	0.4578788
210	0x3fdbfeb3	1.7187103
211	0xc034ea9a	-2.826819
212	0xbff0ab9d	-1.8802372
213	0xc02a70ed	-2.6631424
214	0x3fea8474	1.8321671
215	0x40405fbb	3.005843
216	0x3f0ebc15	0.5575574
217	0xbf1fe7cc	-0.6246307
218	0xbf9a2738	-1.2043219
219	0x3f86ea82	1.0540316
220	0x3fb0db7e	1.3816984
221	0xc02cdeae	-2.7010913
222	0x3fef5363	1.8697323
223	0x3fceb169	1.6147891
224	0xbefc960a	-0.4933322
225	0x3f697f37	0.9120974
226	0x3f6e55d2	0.930997
227	0x3f62f064	0.88648057
228	0xbfafaa36	-1.3723819
229	0x409386f3	4.6102233
230	0x3e83f601	0.25773624
231	0xbe8f023d	-0.27931395
232	0x3fa287fe	1.2697752
233	0xbffb1111	-1.9614583
234	0x3f5aea71	0.8551398
235	0xbfd3e3df	-1.6553916
236	0x3fec2254	1.8447976
237	0x3fe990f5	1.8247362
238	0x40147c63	2.320092
239	0xbf999c27	-1.2000779
240	0x3ef7cbe5	0.48397747
241	0xbf3a8656	-0.7286123
242	0x3ec35105	0.3814775
243	0xbf650316	-0.89457834
244	0x40110c66	2.2663817
245	0x3fcdcde7	1.6078461
246	0x3fed1ae5	1.8523833
247	0xbeb38b2e	-0.35067123
248	0x3f97935e	1.1841848
249	0x3ee73796	0.45159596
250	0xbf000a97	-0.5001616
251	0xbeafc91a	-0.34333116
252	0xbff0344f	-1.8765963
253	0x3de6fe80	0.11279011
254	0xbfe52c72	-1.7904189
255	0xc09d31ad	-4.912314

lstm.weight_hh_l1 f4 [128, 32]
0	0x3e60dabd	0.21958442
1	0x3f31737f	0.6931686
2	0xbdb1e0d9	-0.086854644
3	0x3f2759c4	0.65371346
4	0xbf0806e0	-0.5313549
5	0x3e857dfd	0.26072684
6	0x3f8e70aa	1.1128132
7	0xbfb92625	-1.4464766
8	0xbecbd417	-0.3981025
9	0x3f1308cc	0.574353
10	0xbf39447f	-0.7237014
11	0x3e425381	0.18977167
12	0x3f9d451b	1.2286714
13	0xbf0ca65b	-0.5494134
14	0xbdd88460	-0.105721235
15	0x3f51baaf	0.8192548
16	0x3e8f5a3e	0.27998537
17	0x3e79a17e	0.2437801
18	0xbf604d84	-0.8761828
19	0xbee677c7	-0.45013258
20	0x3e1f5552	0.15559891
21	0x3d47a196	0.048738085
22	0xbf5d804e	-0.865239
23	0x3eb2a0fe	0.34888452
24	0xbcd9890a	-0.026554603
25	0xbfa2ac7f	-1.2708892
26	0x3d468e93	0.048475813
27	0x3e83acf1	0.2571788
28	0x3f80e6d2	1.0070441
29	0x3f50e630	0.8160124
30	0xbe6bfecc	-0.23046416
31	0xbf1a7acd	-0.6034363
32	0x3ed48f20	0.41515446
33	0xbf3dd6b1	-0.7415572
34	0x3f9c1f13	1.2196983
35	0xbee67f50	-0.45019007
36	0x403c9d6b	2.947108
37	0x403a46d8	2.910574
38	0x4065c0ed	3.5899003
39	0xc0078520	-2.1175003
40	0xbe943dd5	-0.28953424
41	0xbf3c98bc	-0.73670554
42	0xbee85c69	-0.45383003
43	0xbebf060a	-0.37309295
44	0x3f476f25	0.7790397
45	0xbf8928ee	-1.0715616
46	0x3e177978	0.1479243
47	0x3edaceda	0.4273594
48	0xbebec11c	-0.37256706
49	0x3edd5592	0.43229347
50	0x3ea436a3	0.32072935
51	0x3e77e7be	0.24209496
52	0xbe488551	-0.19582106
53	0x3ebfc35a	0.3745373
54	0x3e6a570f	0.22884773
55	0xbf41cd80	-0.75704193
56	0x3ebf2eac	0.37340295
57	0x406b827c	3.6798391
58	0xbf03ce53	-0.514867
59	0x3ea563d3	0.32302722
60	0xbef3e037	-0.47632
61	0x3f0480dd	0.5175913
62	0xbee119bf	-0.43964955
63	0x3f002a50	0.50064564
64	0x3a141f36	0.0005650403
65	0x3ecbf9c8	0.39839005
66	0xbf66831e	-0.9004382
67	0x3f4a1945	0.7894481
68	0xbf25bd0e	-0.647416
69	0xbf354059	-0.7080131
70	0x3e7dd42e	0.24787971
71	0x3dc8e0c7	0.09808498
72	0xbf3d5d78	-0.73970747
73	0x3f868b86	1.0511329
74	0x3f4feec2	0.8122369
75	0xbf0cdcd4	-0.55024457
76	0xbe1840ab	-0.14868419
77	0x3ec81658	0.39079547
78	0xbe7e984a	-0.24862781
79	0xbeafa8c7	-0.34308454
80	0x3ee05809	0.43817165
81	0x3ef1f8db	0.47260174
82	0xbe8b89f3	-0.27253684
83	0x3f7aa8ec	0.97914004
84	0x3b3eff6c	0.0029143943
85	0x3eacf072	0.33777195
86	0x3d3739f6	0.04473301
87	0x3e55537f	0.20832632
88	0xbe20ccc5	-0.15703113
89	0xbf3316c7	-0.6995663
90	0xbed483c3	-0.41506776
91	0x3f49b4e1	0.78791624
92	0xbf46258c	-0.7740104
93	0x3ea1aa4d	0.31575242
94	0xbd6b94aa	-0.057514824
95	0xbe8b8cb5	-0.27255788
96	0xbfbd90a8	-1.480977
97	0xbf22c790	-0.6358576
98	0x3f365299	0.71219784
99	0xbf405f43	-0.7514536
100	0x40707a60	3.7574692
101	0x407f5b1d	3.989936
102	0x408ef277	4.4670978
103	0xbfef1ed9	-1.8681289
104	0xbef6eb84	-0.4822656
105	0xbf8e0676	-1.1095722
106	0xbf3c5a38	-0.7357516
107	0xbea9b248	-0.3314383
108	0x3ff98fdf	1.9497031
109	0xbe6ba623	-0.23012595
110	0x3ea4bdce	0.3217606
111	0x3f41655c	0.7554529
112	0xbea9a77d	-0.33135596
113	0xbfd558f0	-1.6667767
114	0x3e9c80dc	0.30567062
115	0x3dff6388	0.12470156
116	0x3e5693cc	0.20954818
117	0xbca56660	-0.020190418
118	0x3ea8304a	0.32849342
119	0xc01060e4	-2.2559137
120	0x3f1d6c37	0.6149325
121	0x408418aa	4.1280107
122	0xbe228cfa	-0.15874091
123	0x3f4a3672	0.78989327
124	0xbef1115f	-0.47083566
125	0x3fd47636	1.6598575
126	0xbf15318e	-0.5827874
127	0x3ee19433	0.4405838
128	0x3f56f0c9	0.8396116
129	0x3edbcd8a	0.4293025
130	0x3f1edd51	0.6205645
131	0x3f13beb2	0.5771285
132	0xbf296ed8	-0.6618476
133	0x3e1531e7	0.14569817
134	0x400bae05	2.1824963
135	0xc058fe72	-3.39053
136	0xbee218dd	-0.44159594
137	0xbe3c7658	-0.1840452
138	0xbef93d16	-0.48679417
139	0x3f2cb795	0.67467624
140	0x40327de0	2.7889328
141	0xbf528fa5	-0.82250434
142	0xbed3509d	-0.4127244
143	0x3f850c3b	1.0394357
144	0xbe33fd74	-0.17577153
145	0xbf0ea36d	-0.5571812
146	0x3dfe182f	0.124069564
147	0x3e07c5c3	0.13259034
148	0x3ec5e664	0.38652337
149	0xbe6e4127	-0.23267041
150	0xbf1e645c	-0.61871886
151	0xbe53aa3f	-0.20670412
152	0xbf2b8eeb	-0.6701495
153	0xbf43ca8f	-0.76480955
154	0x3f3539ed	0.7079151
155	0xbef07eb8	-0.4697168
156	0x3ee523eb	0.44753966
157	0x3f513c1d	0.8173235
158	0x3f044f7b	0.5168378
159	0xbf1f2101	-0.62159735
160	0xbf7643ff	-0.96197504
161	0x3f286c5a	0.6579033
162	0xbf24e30f	-0.64408964
163	0x3eff972d	0.49920025
164	0xbe936da1	-0.28794578
165	0x3d63266f	0.055456575
166	0x3e58d31b	0.2117428
167	0xbdd28a27	-0.10280257
168	0x3e8c820f	0.27442977
169	0x3f7bdc8a	0.9838339
170	0x3ec2eae4	0.38069832
171	0x3ec99496	0.39371175
172	0x3f5f0b01	0.87126166
173	0xbe78cef4	-0.24297696
174	0xbef3c9fb	-0.47615036
175	0x3e5b2984	0.21402556
176	0xbbbec7c3	-0.0058221533
177	0xbe272099	-0.16321029
178	0xbe9cbae6	-0.30611342
179	0xbe5e26f2	-0.21694544
180	0x3f339fcf	0.70165724
181	0xbf69d465	-0.91339713
182	0xbec8c4aa	-0.39212543
183	0xbd633eb2	-0.055479713
184	0xbec00aab	-0.3750814
185	0x3e22b288	0.15888417
186	0x3f0e77ca	0.55651534
187	0xbe8a2a49	-0.26985386
188	0x3e64c896	0.22342142
189	0x3fb87259	1.4409896
190	0x3ea0c2af	0.31398532
191	0xbe888f9b	-0.26672062
192	0xc0a71b7b	-5.2221045
193	0x3f36f9b9	0.71474797
194	0x402f15f1	2.7357142
195	0xbf30b5ed	-0.69027597
196	0x408e942c	4.4555874
197	0x40303875	2.7534459
198	0x40d4bef8	6.6483116
199	0xbfe55b05	-1.7918402
200	0xc0087b89	-2.13254
201	0xc01a42ac	-2.4103193
202	0xbfd1acee	-1.6380899
203	0x3fcea65e	1.6144521
204	0x40a5ad1b	5.177381
205	0xbf6a6595	-0.9156125
206	0x401f77e0	2.4916916
207	0x4003f2a3	2.0616844
208	0xc084e218	-4.1525993
209	0xc0c62584	-6.1920795
210	0x403d08c1	2.9536593
211	0x40828256	4.07841
212	0xc00abdec	-2.167842
213	0xc083a8ef	-4.114372
214	0x3f49519c	0.7864015
215	0xc054e40c	-3.3264189
216	0xc0378afe	-2.8678584
217	0x411302c8	9.188179
218	0x408caecd	4.396338
219	0x3ee140c0	0.43994713
220	0x4014e4a3	2.3264549
221	0x40d58704	6.6727314
222	0x3f25bc76	0.64740694
223	0x40449425	3.071542
224	0xbfd210ab	-1.6411337
225	0x3f5deda5	0.8669074
226	0xbe177b72	-0.14793184
227	0x3f00bbc0	0.50286484
228	0x3f43f6b9	0.76548344
229	0x3f67f9ea	0.90615714
230	0x40044852	2.066914
231	0xbcfc0016	-0.03076176
232	0xbf8199c0	-1.0125046
233	0x3d1ac16b	0.037782114
234	0x3f7811a4	0.9690192
235	0x3feba575	1.8409868
236	0x3e880fdc	0.265746
237	0xbf0329ea	-0.5123583
238	0x3f3a1e6b	0.72702664
239	0xbe37c854	-0.17947513
240	0xbfb9f8c5	-1.4529043
241	0xbf991ddb	-1.1962236
242	0x3fad7c7d	1.3553616
243	0xbf32fc71	-0.69916445
244	0xbf2a5629	-0.6653772
245	0xbf981439	-1.1881171
246	0xbf0ad251	-0.5422717
247	0xc0295507	-2.6458147
248	0xbf7671c4	-0.9626734
249	0xc07c5400	-3.942627
250	0x3faf42c9	1.3692256
251	0xbd72269c	-0.059118852
252	0x3f253224	0.64529634
253	0x4052a505	3.291322
254	0x3f3f91bf	0.74831766
255	0x3f82f86e	1.0232065

lstm.bias_ih_l1 f4 [128]
0	0x3fdb0cd5	1.7113291
1	0xc02fccf4	-2.7468843
2	0x3fad1bb7	1.3524083
3	0xc01b2050	-2.4238472
4	0x3fca5281	1.5806428
5	0x401a8469	2.4143317
6	0x4043c5ad	3.0589402
7	0xbea7bd9e	-0.32761854
8	0xbfc3fcba	-1.5311501
9	0x3f9cfd2f	1.2264766
10	0xc004f0f4	-2.0772066
11	0xbfd44315	-1.6582972
12	0xbee2b22e	-0.44276565
13	0xc0801291	-4.0022664
14	0xbff88870	-1.9416637
15	0xc0090527	-2.1409395
16	0xbe9e054b	-0.30863413
17	0x3dd868bb	0.10566851
18	0xbfc9caf1	-1.5765058
19	0xbf235393	-0.637994
20	0xc08d0dea	-4.4079485
21	0xbf84cd53	-1.037516
22	0xc0189137	-2.3838632
23	0x4004e512	2.0764813
24	0xbffb7031	-1.9643613
25	0xbfc4cb3e	-1.5374525
26	0xbf8db302	-1.1070254
27	0xbfac30b1	-1.345236
28	0xc01c4516	-2.4417167
29	0xbebe7dcc	-0.3720535
30	0xc0791738	-3.8920422
31	0xc018aafa	-2.3854356
32	0x3fed03b2	1.8516753
33	0xbffa8f5d	-1.9575001
34	0x3f840ac4	1.0315785
35	0xc02ebaa5	-2.7301419
36	0x404e7eea	3.2264962
37	0x4062f500	3.5462036
38	0xc02f57d4	-2.7397356
39	0xbfc61e88	-1.5478067
40	0xc06ccf4a	-3.700152
41	0x3fe81b13	1.8133262
42	0xc059411a	-3.3945985
43	0xc039d5b3	-2.9036682
44	0xc08436c4	-4.1316853
45	0xc01d1430	-2.4543571
46	0xbfc7c51e	-1.560703
47	0xc055bc47	-3.3396165
48	0xc022c29d	-2.5431283
49	0x3fe6d047	1.8032311
50	0xbf52fc7f	-0.8241653
51	0xc01e7fa5	-2.4765408
52	0xbfebac1b	-1.8411897
53	0xc07b4267	-3.9259279
54	0xc0412e92	-3.0184674
55	0x4051380d	3.269046
56	0xc0822b12	-4.0677576
57	0xbfbb1193	-1.4614738
58	0xc0926a65	-4.5754876
59	0xc06399d7	-3.5562646
60	0xc0615685	-3.5209057
61	0xc01e4e9b	-2.4735477
62	0xbfc7e82b	-1.5617727
63	0xc04ad67b	-3.1693408
64	0x3fb1937e	1.3873136
65	0xbf70363c	-0.93832755
66	0xbfd34dd8	-1.6508131
67	0x401e6b57	2.4753015
68	0xbff30d40	-1.8988419
69	0xbff19153	-1.8872474
70	0xbf451b8f	-0.76995176
71	0x3ef51b04	0.47872174
72	0x40201af8	2.501646
73	0x3f735d4a	0.9506422
74	0x40017536	2.022779
75	0xc00470d2	-2.069386
76	0xc06a3c2b	-3.6599224
77	0x3f1af088	0.6052327
78	0x3fcfecba	1.6244118
79	0xbfbee21c	-1.4912753
80	0x40160b4c	2.3444395
81	0x4088f3de	4.279769
82	0xc00996cc	-2.149829
83	0xbfb8610c	-1.4404616
84	0x3fa77f07	1.3085641
85	0x400e438b	2.2228725
86	0xbfde7492	-1.7379324
87	0x3e9dcbbe	0.30819505
88	0x3fc9409c	1.5722842
89	0xc0165c52	-2.3493848
90	0xc0656bb3	-3.5846984
91	0xc006cf93	-2.1064193
92	0xbfd88179	-1.6914512
93	0xc0683209	-3.628054
94	0xbf6d6592	-0.9273311
95	0xc00652a9	-2.0987952
96	0xbfd0f3d7	-1.6324414
97	0xc007f2d8	-2.124197
98	0xc0836444	-4.1059895
99	0xc019d6b0	-2.4037285
100	0xbf3477b3	-0.70495147
101	0xbf87ea5e	-1.0618398
102	0xbe955c32	-0.29171902
103	0xbfc46e15	-1.5346094
104	0xbfbf756c	-1.4957709
105	0xc06649ff	-3.5982664
106	0xbfa9a58d	-1.3253647
107	0xbfd200ef	-1.6406535
108	0xbf026877	-0.5094065
109	0xc04d71f9	-3.2100813
110	0xbfdd5440	-1.7291336
111	0xc0158366	-2.336145
112	0xc02dce5b	-2.71572
113	0x3cd2afea	0.025718648
114	0xc03451e2	-2.8174977
115	0xbf10c6e9	-0.5655351
116	0xc0870960	-4.2198944
117	0xbec5caf2	-0.38631397
118	0xbffc49cd	-1.9710022
119	0xbff38ec0	-1.9027939
120	0xbff8a1bf	-1.9424361
121	0x3f8754e3	1.057278
122	0xbf2946fc	-0.6612394
123	0xbff17ebd	-1.8866802
124	0xc0249509	-2.5715964
125	0xbeb2ba8c	-0.3490795
126	0xc073ccc3	-3.8093727
127	0xc022eb86	-2.5456252

lstm.bias_hh_l1 f4 [128]
0	0x3fdb0cd5	1.7113291
1	0xc02fccf4	-2.7468843
2	0x3fad1bb7	1.3524083
3	0xc01b2050	-2.4238472
4	0x3fca5281	1.5806428
5	0x401a8469	2.4143317
6	0x4043c5ad	3.0589402
7	0xbea7bd9e	-0.32761854
8	0xbfc3fcba	-1.5311501
9	0x3f9cfd2f	1.2264766
10	0xc004f0f4	-2.0772066
11	0xbfd44315	-1.6582972
12	0xbee2b22e	-0.44276565
13	0xc0801291	-4.0022664
14	0xbff88870	-1.9416637
15	0xc0090527	-2.1409395
16	0xbe9e054b	-0.30863413
17	0x3dd868bb	0.10566851
18	0xbfc9caf1	-1.5765058
19	0xbf235393	-0.637994
20	0xc08d0dea	-4.4079485
21	0xbf84cd53	-1.037516
22	0xc0189137	-2.3838632
23	0x4004e512	2.0764813
24	0xbffb7031	-1.9643613
25	0xbfc4cb3e	-1.5374525
26	0xbf8db302	-1.1070254
27	0xbfac30b1	-1.345236
28	0xc01c4516	-2.4417167
29	0xbebe7dcc	-0.3720535
30	0xc0791738	-3.8920422
31	0xc018aafa	-2.3854356
32	0x3fed03b2	1.8516753
33	0xbffa8f5d	-1.9575001
34	0x3f840ac4	1.0315785
35	0xc02ebaa5	-2.7301419
36	0x404e7eea	3.2264962
37	0x4062f500	3.5462036
38	0xc02f57d4	-2.7397356
39	0xbfc61e88	-1.5478067
40	0xc06ccf4a	-3.700152
41	0x3fe81b13	1.8133262
42	0xc059411a	-3.3945985
43	0xc039d5b3	-2.9036682
44	0xc08436c4	-4.1316853
45	0xc01d1430	-2.4543571
46	0xbfc7c51e	-1.560703
47	0xc055bc47	-3.3396165
48	0xc022c29d	-2.5431283
49	0x3fe6d047	1.8032311
50	0xbf52fc7f	-0.8241653
51	0xc01e7fa5	-2.4765408
52	0xbfebac1b	-1.8411897
53	0xc07b4267	-3.9259279
54	0xc0412e92	-3.0184674
55	0x4051380d	3.269046
56	0xc0822b12	-4.0677576
57	0xbfbb1193	-1.4614738
58	0xc0926a65	-4.5754876
59	0xc06399d7	-3.5562646
60	0xc0615685	-3.5209057
61	0xc01e4e9b	-2.4735477
62	0xbfc7e82b	-1.5617727
63	0xc04ad67b	-3.1693408
64	0x3fb1937e	1.3873136
65	0xbf70363c	-0.93832755
66	0xbfd34dd8	-1.6508131
67	0x401e6b57	2.4753015
68	0xbff30d40	-1.8988419
69	0xbff19153	-1.8872474
70	0xbf451b8f	-0.76995176
71	0x3ef51b04	0.47872174
72	0x40201af8	2.501646
73	0x3f735d4a	0.9506422
74	0x40017536	2.022779
75	0xc00470d2	-2.069386
76	0xc06a3c2b	-3.6599224
77	0x3f1af088	0.6052327
78	0x3fcfecba	1.6244118
79	0xbfbee21c	-1.4912753
80	0x40160b4c	2.3444395
81	0x4088f3de	4.279769
82	0xc00996cc	-2.149829
83	0xbfb8610c	-1.4404616
84	0x3fa77f07	1.3085641
85	0x400e438b	2.2228725
86	0xbfde7492	-1.7379324
87	0x3e9dcbbe	0.30819505
88	0x3fc9409c	1.5722842
89	0xc0165c52	-2.3493848
90	0xc0656bb3	-3.5846984
91	0xc006cf93	-2.1064193
92	0xbfd88179	-1.6914512
93	0xc0683209	-3.628054
94	0xbf6d6592	-0.9273311
95	0xc00652a9	-2.0987952
96	0xbfd0f3d7	-1.6324414
97	0xc007f2d8	-2.124197
98	0xc0836444	-4.1059895
99	0xc019d6b0	-2.4037285
100	0xbf3477b3	-0.70495147
101	0xbf87ea5e	-1.0618398
102	0xbe955c32	-0.29171902
103	0xbfc46e15	-1.5346094
104	0xbfbf756c	-1.4957709
105	0xc06649ff	-3.5982664
106	0xbfa9a58d	-1.3253647
107	0xbfd200ef	-1.6406535
108	0xbf026877	-0.5094065
109	0xc04d71f9	-3.2100813
110	0xbfdd5440	-1.7291336
111	0xc0158366	-2.336145
112	0xc02dce5b	-2.71572
113	0x3cd2afea	0.025718648
114	0xc03451e2	-2.8174977
115	0xbf10c6e9	-0.5655351
116	0xc0870960	-4.2198944
117	0xbec5caf2	-0.38631397
118	0xbffc49cd	-1.9710022
119	0xbff38ec0	-1.9027939
120	0xbff8a1bf	-1.9424361
121	0x3f8754e3	1.057278
122	0xbf2946fc	-0.6612394
123	0xbff17ebd	-1.8866802
124	0xc0249509	-2.5715964
125	0xbeb2ba8c	-0.3490795
126	0xc073ccc3	-3.8093727
127	0xc022eb86	-2.5456252

linear_2.weight f4 [1, 64]
0	0xbf8c9c42	-1.0985186
1	0xbf63e181	-0.89015967
2	0xbe85f3df	-0.2616262
3	0xbcaba721	-0.020953717
4	0x3fa11667	1.2584962
5	0x3f405161	0.75124174
6	0x3e5e9276	0.21735558
7	0x3faf39be	1.3689497
8	0x3ef91976	0.48652238
9	0x3f61c834	0.8819611
10	0xbfb31be9	-1.3992893
11	0x3fd0b959	1.6306564
12	0x3f1995ca	0.59994185
13	0x3f3d8884	0.7403643
14	0x3d1d9393	0.038470816
15	0x3ee42fd3	0.44567737
16	0xbf724469	-0.94635636
17	0xbf77c1a2	-0.96779835
18	0x3e0d3857	0.13791023
19	0x3f895f34	1.0732179
20	0x3ec5bcd0	0.38620615
21	0xbec18025	-0.3779308
22	0xbfb2a2e5	-1.3955961
23	0x3f4ad405	0.79229766
24	0xbf8d1a57	-1.1023663
25	0xbf140fa1	-0.5783635
26	0x3e680b50	0.22660565
27	0x3e7f0198	0.24902952
28	0xbf83893a	-1.0276253
29	0x3e995e0c	0.29954565
30	0xbf875451	-1.0572606
31	0xbfbfd257	-1.4986066
32	0xbfe654f0	-1.7994671
33	0x3ff5f164	1.9214292
34	0x4012726d	2.288234
35	0xbfc8520a	-1.5650036
36	0x40085807	2.1303728
37	0x402f3cd3	2.7380874
38	0x4051de26	3.2791839
39	0x3f8e0a01	1.1096803
40	0xbef0b6ec	-0.47014558
41	0xc00f0b50	-2.2350655
42	0xbfdd43f0	-1.7286358
43	0x3f0df814	0.5545666
44	0x3fc70d6d	1.5550972
45	0xbf673b74	-0.90325093
46	0x3fbbefe0	1.4682579
47	0x3feb089e	1.8362005
48	0xbf9f7703	-1.2458194
49	0xbf7e4236	-0.9931978
50	0x3fa4732d	1.2847649
51	0x3eac114b	0.33606943
52	0xbf4e4835	-0.8057893
53	0xbfb5a244	-1.4190145
54	0x3fd3ed28	1.6556749
55	0xc016d69d	-2.356849
56	0xbff4935e	-1.9107473
57	0xbea54411	-0.32278493
58	0x3f73f3ba	0.9529377
59	0x3fb6be9b	1.4276918
60	0x3f988b2e	1.1917474
61	0x3f5252ac	0.821574
62	0x3f777574	0.96663594
63	0x3fd28ef2	1.6449873
